firmware/Camera/Neural Networks/blackmodel.tflite (tflite, 64512 bytes, 5 tensors)

sequential/dense_1/MatMul i1 [10, 128] scale=0.007653271 zero_point=0
0.022959813 -0.091839254 0.4438897 0.14541215 -0.4132766 0.22194485 -0.053572897 0.16837196
-0.15306541 0.0 -0.3903168 -0.1607187 0.22194485 -0.2066383 -0.2372514 -0.3903168
0.107145794 0.06887944 0.27551776 0.09949252 -0.022959813 -0.19898504 -0.06887944 0.007653271
-0.13775888 0.22194485 -0.650528 -0.18367851 0.2602112 -0.1301056 -0.4132766 0.1301056
-0.13775888 -0.3214374 -0.14541215 0.3214374 -0.053572897 0.015306542 0.107145794 0.06887944
-0.007653271 -0.007653271 0.17602523 -0.24490467 -0.045919627 0.3214374 0.06887944 0.09949252
0.51276916 0.2602112 0.17602523 0.11479906 -0.30613083 -0.21429159 0.29847756 -0.11479906
0.091839254 -0.21429159 0.15306541 -0.1607187 0.09949252 0.18367851 -0.35205045 -0.09949252
-0.030613083 -0.22959812 0.091839254 -0.16837196 0.2372514 -0.045919627 0.22194485 0.107145794
0.1301056 -0.26786447 -0.13775888 0.015306542 0.1607187 -0.1301056 0.08418598 -0.1607187
-0.12245233 0.015306542 0.061226167 0.1301056 0.19133177 -0.06887944 -0.2066383 -0.061226167
-0.3443972 0.2066383 0.2066383 -0.30613083 0.30613083 0.061226167 -0.015306542 -0.30613083
-0.07653271 0.015306542 0.107145794 0.29847756 0.007653271 0.30613083 -0.053572897 0.053572897
-0.015306542 0.107145794 -0.15306541 -0.045919627 -0.13775888 -0.07653271 -0.17602523 -0.15306541
-0.2908243 0.06887944 -0.3214374 0.4132766 -0.14541215 -0.045919627 -0.12245233 0.06887944
-0.3903168 0.022959813 0.15306541 0.37501028 -0.091839254 0.25255793 0.4438897 0.07653271
0.1301056 -0.12245233 0.12245233 0.061226167 -0.13775888 -0.3214374 0.06887944 0.17602523
-0.015306542 0.0 0.030613083 0.061226167 0.24490467 0.045919627 -0.48215607 0.14541215
-0.022959813 -0.18367851 -0.030613083 -0.107145794 0.091839254 0.22959812 -0.07653271 0.2372514
0.022959813 0.29847756 -0.015306542 0.038266353 -0.007653271 -0.015306542 0.22194485 -0.06887944
-0.15306541 -0.39797008 -0.091839254 0.061226167 0.2372514 0.038266353 -0.2066383 -0.1301056
0.045919627 -0.015306542 0.053572897 0.2066383 0.22194485 -0.007653271 0.13775888 0.0
0.28317103 -0.14541215 0.3443972 0.07653271 0.36735702 -0.17602523 -0.5510355 -0.18367851
0.107145794 0.19898504 -0.22959812 0.2066383 -0.06887944 0.30613083 -0.107145794 -0.32909065
0.19898504 -0.19133177 -0.09949252 -0.1301056 0.27551776 -0.015306542 0.2066383 0.022959813
-0.25255793 -0.27551776 -0.08418598 -0.6964477 0.091839254 0.053572897 -0.18367851 0.0
-0.045919627 0.40562335 -0.2602112 0.19898504 -0.091839254 0.030613083 -0.18367851 -0.15306541
-0.015306542 0.17602523 -0.030613083 0.17602523 -0.48980933 0.12245233 0.11479906 0.33674392
0.09949252 0.2372514 -0.015306542 0.19898504 -0.12245233 0.17602523 0.28317103 -0.053572897
0.091839254 -0.9719654 -0.091839254 -0.15306541 -0.061226167 0.14541215 -0.007653271 -0.08418598
-0.107145794 0.053572897 0.0 0.56634206 -0.091839254 0.08418598 0.030613083 0.2066383
-0.107145794 0.061226167 -0.13775888 0.2372514 0.0 0.25255793 -0.053572897 -0.061226167
00000000: 03f4 3a13 ca1d f916 ec00 cdeb 1de5 e1cd
00000010: 0e09 240d fde6 f701 ee1d abe8 22ef ca11
00000020: eed6 ed2a f902 0e09 ffff 17e0 fa2a 090d
00000030: 4322 170f d8e4 27f1 0ce4 14eb 0d18 d2f3
00000040: fce2 0cea 1ffa 1d0e 11dd ee02 15ef 0beb
00000050: f002 0811 19f7 e5f8 d31b 1bd8 2808 fed8
00000060: f602 0e27 0128 f907 fe0e ecfa eef6 e9ec
00000070: da09 d636 edfa f009 cd03 1431 f421 3a0a
00000080: 11f0 1008 eed6 0917 fe00 0408 2006 c113
00000090: fde8 fcf2 0c1e f61f 0327 fe05 fffe 1df7
000000a0: eccc f408 1f05 e5ef 06fe 071b 1dff 1200
000000b0: 25ed 2d0a 30e9 b8e8 0e1a e21b f728 f2d5
000000c0: 1ae7 f3ef 24fe 1b03 dfdc f5a5 0c07 e800
000000d0: fa35 de1a f404 e8ec fe17 fc17 c010 0f2c
000000e0: 0d1f fe1a f017 25f9 0c81 f4ec f813 fff5
000000f0: f207 004a f40b 041b f208 ee1f 0021 f9f8

sequential/dense/MatMul i1 [128, 441] scale=0.010521628 zero_point=0
0.05260814 -0.04208651 0.073651396 -0.12625954 -0.1893893 0.19991094 -0.1893893 0.09469465
0.368257 -0.24199745 -0.16834605 0.08417302 0.16834605 -0.23147582 -0.04208651 -0.13678116
0.08417302 -0.021043256 0.2630407 -0.14730279 -0.11573791 0.29460558 0.22095418 0.08417302
0.05260814 0.031564884 0.31564885 -0.04208651 -0.10521628 -0.05260814 -0.06312977 0.12625954
0.10521628 0.11573791 -0.17886767 0.16834605 -0.04208651 -0.1893893 -0.14730279 -0.1893893
0.2630407 -0.073651396 0.11573791 -0.010521628 -0.021043256 -0.09469465 -0.11573791 0.021043256
0.073651396 -0.05260814 -0.368257 0.10521628 -0.13678116 0.368257 0.12625954 0.021043256
0.23147582 0.10521628 0.073651396 -0.11573791 0.05260814 0.010521628 0.11573791 0.3366921
0.073651396 -0.12625954 -0.073651396 -0.17886767 0.0 -0.12625954 -0.010521628 0.2735623
0.031564884 0.073651396 -0.1893893 0.09469465 0.10521628 0.31564885 -0.14730279 0.09469465
-0.031564884 -0.06312977 -0.04208651 0.10521628 -0.09469465 -0.15782443 0.09469465 -0.25251907
0.38930023 -0.031564884 0.16834605 0.05260814 0.010521628 -0.06312977 0.073651396 0.1893893
-0.43138674 0.05260814 -0.06312977 -0.39982188 -0.09469465 0.073651396 -0.19991094 -0.14730279
0.12625954 -0.35773534 -0.021043256 -0.32617047 -0.073651396 -0.08417302 0.0 -0.010521628
0.1893893 0.14730279 -0.021043256 0.0 -0.05260814 0.06312977 0.10521628 -0.16834605
-0.04208651 -0.05260814 0.32617047 0.32617047 -0.14730279 0.021043256 -0.3051272 0.12625954
-0.021043256 -0.12625954 -0.031564884 0.1893893 0.04208651 -0.08417302 0.0 -0.021043256
0.12625954 -0.031564884 -0.031564884 0.12625954 -0.073651396 0.08417302 -0.06312977 -0.09469465
-0.05260814 -0.010521628 -0.021043256 0.021043256 -0.073651396 -0.073651396 -0.2735623 0.368257
-0.08417302 -0.06312977 0.05260814 -0.021043256 0.16834605 -0.3366921 -0.25251907 -0.5155598
0.06312977 -0.4839949 0.29460558 -0.08417302 -0.010521628 -0.05260814 -0.09469465 0.14730279
-0.12625954 0.0 -0.073651396 -0.10521628 -0.1893893 -0.021043256 -0.21043256 -0.14730279
-0.06312977 0.32617047 0.08417302 -0.22095418 -0.12625954 -0.05260814 0.06312977 -0.05260814
0.10521628 0.031564884 0.05260814 -0.08417302 -0.05260814 0.010521628 -0.031564884 -0.25251907
-0.12625954 0.031564884 0.1893893 0.368257 -0.021043256 -0.28408396 -0.4839949 0.010521628
-0.05260814 -0.17886767 0.22095418 -0.13678116 0.12625954 0.3051272 -0.28408396 -0.25251907
0.06312977 0.031564884 0.04208651 0.010521628 0.29460558 0.021043256 0.11573791 -0.43138674
-0.28408396 -0.09469465 0.05260814 0.073651396 -0.3366921 0.06312977 -0.24199745 0.15782443
-0.13678116 -0.14730279 -0.06312977 0.13678116 0.04208651 -0.10521628 0.2735623 0.10521628
0.19991094 -0.16834605 0.10521628 0.073651396 -0.10521628 -0.12625954 -0.073651396 0.1893893
0.15782443 0.073651396 -0.76807886 -0.28408396 0.11573791 -0.17886767 0.08417302 0.12625954
0.25251907 0.0 -0.08417302 -0.05260814 0.010521628 0.08417302 -0.14730279 0.0
00000000: 05fc 07f4 ee13 ee09 23e9 f008 10ea fcf3
00000010: 08fe 19f2 f51c 1508 0503 1efc f6fb fa0c
00000020: 0a0b ef10 fcee f2ee 19f9 0bff fef7 f502
00000030: 07fb dd0a f323 0c02 160a 07f5 0501 0b20
00000040: 07f4 f9ef 00f4 ff1a 0307 ee09 0a1e f209
00000050: fdfa fc0a f7f1 09e8 25fd 1005 01fa 0712
00000060: d705 fada f707 edf2 0cde fee1 f9f8 00ff
00000070: 120e fe00 fb06 0af0 fcfb 1f1f f202 e30c
00000080: fef4 fd12 04f8 00fe 0cfd fd0c f908 faf7
00000090: fbff fe02 f9f9 e623 f8fa 05fe 10e0 e8cf
000000a0: 06d2 1cf8 fffb f70e f400 f9f6 eefe ecf2
000000b0: fa1f 08eb f4fb 06fb 0a03 05f8 fb01 fde8
000000c0: f403 1223 fee5 d201 fbef 15f3 0c1d e5e8
000000d0: 0603 0401 1c02 0bd7 e5f7 0507 e006 e90f
000000e0: f3f2 fa0d 04f6 1a0a 13f0 0a07 f6f4 f912
000000f0: 0f07 b7e5 0bef 080c 1800 f8fb 0108 f200

sequential/conv2d_2/Conv2D i1 [9, 2, 2, 9]
-50 -46 -27 -78 -69 -67 29 -84
-52 1 36 105 -29 1 -75 -1
32 -13 -127 -11 -52 -38 -20 -68
-71 20 -66 -2 78 -27 2 -20
-51 7 -31 -1 13 -34 -127 -32
-80 20 6 19 15 3 -29 -55
11 -63 -25 6 14 12 28 6
-31 23 -31 -1 -44 20 16 29
-12 -36 -27 -11 21 12 0 -12
18 4 -28 -52 115 25 16 -57
-39 -78 9 -21 -5 58 22 42
-2 -4 1 -32 24 79 87 -127
46 27 -32 -31 -27 -25 -51 30
11 -28 24 5 -60 53 -7 -3
-44 -43 9 36 0 -18 -61 14
-33 -15 21 51 -24 -82 -2 -6
-8 26 -127 -34 28 35 0 -39
18 8 -19 -11 -85 47 -50 12
73 -14 108 124 -44 -98 83 33
-127 8 -59 -17 -19 -108 26 -18
-21 -54 86 -61 -106 -93 -21 -31
-31 -63 -40 -42 -2 -23 -73 -10
-33 -62 77 -46 -61 -58 17 -24
4 -44 -7 -91 62 -74 -28 7
-74 21 -37 -75 -112 68 -13 -22
31 2 49 -5 59 30 8 -44
-16 41 4 53 79 -10 -127 -36
26 45 -21 -21 -19 36 12 86
31 70 -28 -21 31 -35 99 -9
123 29 33 -17 -21 -30 -85 50
-69 -127 11 -45 -17 41 -97 -77
74 -82 -22 47 81 -62 -94 -56
00000000: ced2 e5b2 bbbd 1dac cc01 2469 e301 b5ff
00000010: 20f3 81f5 ccda ecbc b914 befe 4ee5 02ec
00000020: cd07 e1ff 0dde 81e0 b014 0613 0f03 e3c9
00000030: 0bc1 e706 0e0c 1c06 e117 e1ff d414 101d
00000040: f4dc e5f5 150c 00f4 1204 e4cc 7319 10c7
00000050: d9b2 09eb fb3a 162a fefc 01e0 184f 5781
00000060: 2e1b e0e1 e5e7 cd1e 0be4 1805 c435 f9fd
00000070: d4d5 0924 00ee c30e dff1 1533 e8ae fefa
00000080: f81a 81de 1c23 00d9 1208 edf5 ab2f ce0c
00000090: 49f2 6c7c d49e 5321 8108 c5ef ed94 1aee
000000a0: ebca 56c3 96a3 ebe1 e1c1 d8d6 fee9 b7f6
000000b0: dfc2 4dd2 c3c6 11e8 04d4 f9a5 3eb6 e407
000000c0: b615 dbb5 9044 f3ea 1f02 31fb 3b1e 08d4
000000d0: f029 0435 4ff6 81dc 1a2d ebeb ed24 0c56
000000e0: 1f46 e4eb 1fdd 63f7 7b1d 21ef ebe2 ab32
000000f0: bb81 0bd3 ef29 9fb3 4aae ea2f 51c2 a2c8

sequential/conv2d_1/Conv2D i1 [9, 2, 2, 9]
-19 -44 41 27 -5 27 -35 44
10 -32 1 39 -20 -18 -3 0
58 -16 -29 10 -41 -25 22 19
-7 4 20 31 -103 -127 11 -8
-9 -63 10 -15 54 -35 -42 -31
91 4 92 -127 -12 -112 -45 76
100 -12 -79 82 -58 5 0 33
47 -38 41 -102 -108 -106 109 -11
-6 -25 12 0 -62 -32 -62 26
-10 28 -3 74 -15 -72 -55 -16
-58 53 -15 127 -9 23 -71 -32
-58 26 -22 -22 24 -59 40 -26
73 -19 42 -24 -2 31 14 4
72 -9 -83 -12 -69 -41 10 -29
39 1 108 95 58 127 80 -63
49 73 -90 -65 52 -30 82 -20
-73 39 -16 -29 109 -47 -71 62
63 -95 -30 -46 -102 68 121 -39
45 -59 -28 -61 -36 -34 -41 94
-81 -39 -41 -66 -127 33 35 -42
67 5 35 29 43 -31 -10 -23
15 -2 -34 2 28 31 -59 2
-11 48 -19 5 -90 -42 -41 76
-2 21 13 18 30 -25 -4 -39
80 -26 16 -3 110 34 15 37
-67 -1 31 82 -50 127 33 83
35 -38 21 -64 -54 -91 42 41
-44 16 33 -27 -52 12 9 -82
29 -23 11 -9 -25 28 19 -36
-127 10 -20 -8 45 -19 -64 -41
16 -46 11 -51 55 -17 -6 34
50 25 -36 -20 -54 8 -68 -11
00000000: edd4 291b fb1b dd2c 0ae0 0127 ecee fd00
00000010: 3af0 e30a d7e7 1613 f904 141f 9981 0bf8
00000020: f7c1 0af1 36dd d6e1 5b04 5c81 f490 d34c
00000030: 64f4 b152 c605 0021 2fda 299a 9496 6df5
00000040: fae7 0c00 c2e0 c21a f61c fd4a f1b8 c9f0
00000050: c635 f17f f717 b9e0 c61a eaea 18c5 28e6
00000060: 49ed 2ae8 fe1f 0e04 48f7 adf4 bbd7 0ae3
00000070: 2701 6c5f 3a7f 50c1 3149 a6bf 34e2 52ec
00000080: b727 f0e3 6dd1 b93e 3fa1 e2d2 9a44 79d9
00000090: 2dc5 e4c3 dcde d75e afd9 d7be 8121 23d6
000000a0: 4305 231d 2be1 f6e9 0ffe de02 1c1f c502
000000b0: f530 ed05 a6d6 d74c fe15 0d12 1ee7 fcd9
000000c0: 50e6 10fd 6e22 0f25 bdff 1f52 ce7f 2153
000000d0: 23da 15c0 caa5 2a29 d410 21e5 cc0c 09ae
000000e0: 1de9 0bf7 e71c 13dc 810a ecf8 2ded c0d7
000000f0: 10d2 0bcd 37ef fa22 3219 dcec ca08 bcf5

sequential/conv2d/Conv2D i1 [9, 2, 2, 1]
-42 -127 104 -82 -127 101 14 -39
124 -127 44 -56 109 59 -60 -127
-127 -41 21 110 -127 -70 -96 -43
-58 107 79 127 25 14 -127 -16
-56 127 -92 -29
00000000: d681 68ae 8165 0ed9 7c81 2cc8 6d3b c481
00000010: 81d7 156e 81ba a0d5 c66b 4f7f 190e 81f0
00000020: c87f a4e3
